…
            "__________________________________________________________________________________________________\n",
            "Layer (type)                    Output Shape         Param #     Connected to                     \n",
            "==================================================================================================\n",
            "input_1 (InputLayer)            [(None, 1024, 16)]   0                                            \n",
            "__________________________________________________________________________________________________\n",
            "conv1d (Conv1D)                 (None, 1024, 32)     544         input_1[0][0]                    \n",
            "__________________________________________________________________________________________________\n",
            "separable_conv1d (SeparableConv (None, 1024, 32)     8224        conv1d[0][0]                     \n",
            "__________________________________________________________________________________________________\n",
            "activation (Activation)         (None, 1024, 32)     0           separable_conv1d[0][0]           \n",
            "__________________________________________________________________________________________________\n",
            "lambda (Lambda)                 (None, 1024, 32)     0           activation[0][0]                 \n",
            "__________________________________________________________________________________________________\n",
            "spatial_dropout1d (SpatialDropo (None, 1024, 32)     0           lambda[0][0]                     \n",
            "__________________________________________________________________________________________________\n",
            "conv1d_1 (Conv1D)               (None, 1024, 32)     1056        spatial_dropout1d[0][0]          \n",
            "__________________________________________________________________________________________________\n",
            "add (Add)                       (None, 1024, 32)     0           conv1d[0][0]                     \n",
            "                                                                 conv1d_1[0][0]                   \n",
            "__________________________________________________________________________________________________\n",
            "separable_conv1d_1 (SeparableCo (None, 1024, 32)     8224        add[0][0]                        \n",
            "__________________________________________________________________________________________________\n",
            "activation_1 (Activation)       (None, 1024, 32)     0           separable_conv1d_1[0][0]         \n",
            "__________________________________________________________________________________________________\n",
            "lambda_1 (Lambda)               (None, 1024, 32)     0           activation_1[0][0]               \n",
            "__________________________________________________________________________________________________\n",
            "spatial_dropout1d_1 (SpatialDro (None, 1024, 32)     0           lambda_1[0][0]                   \n",
            "__________________________________________________________________________________________________\n",
            "conv1d_2 (Conv1D)               (None, 1024, 32)     1056        spatial_dropout1d_1[0][0]        \n",
            "__________________________________________________________________________________________________\n",
            "add_1 (Add)                     (None, 1024, 32)     0           add[0][0]                        \n",
            "                                                                 conv1d_2[0][0]                   \n",
            "__________________________________________________________________________________________________\n",
            "separable_conv1d_2 (SeparableCo (None, 1024, 32)     8224        add_1[0][0]                      \n",
            "__________________________________________________________________________________________________\n",
            "activation_2 (Activation)       (None, 1024, 32)     0           separable_conv1d_2[0][0]         \n",
            "__________________________________________________________________________________________________\n",
            "lambda_2 (Lambda)               (None, 1024, 32)     0           activation_2[0][0]               \n",
            "__________________________________________________________________________________________________\n",
            "spatial_dropout1d_2 (SpatialDro (None, 1024, 32)     0           lambda_2[0][0]                   \n",
            "__________________________________________________________________________________________________\n",
            "conv1d_3 (Conv1D)               (None, 1024, 32)     1056        spatial_dropout1d_2[0][0]        \n",
            "__________________________________________________________________________________________________\n",
            "add_2 (Add)                     (None, 1024, 32)     0           add_1[0][0]                      \n",
            "                                                                 conv1d_3[0][0]                   \n",
            "__________________________________________________________________________________________________\n",
            "separable_conv1d_3 (SeparableCo (None, 1024, 32)     8224        add_2[0][0]                      \n",
            "__________________________________________________________________________________________________\n",
            "activation_3 (Activation)       (None, 1024, 32)     0           separable_conv1d_3[0][0]         \n",
            "__________________________________________________________________________________________________\n",
            "lambda_3 (Lambda)               (None, 1024, 32)     0           activation_3[0][0]               \n",
            "__________________________________________________________________________________________________\n",
            "spatial_dropout1d_3 (SpatialDro (None, 1024, 32)     0           lambda_3[0][0]                   \n",
            "__________________________________________________________________________________________________\n",
            "conv1d_4 (Conv1D)               (None, 1024, 32)     1056        spatial_dropout1d_3[0][0]        \n",
            "__________________________________________________________________________________________________\n",
            "add_3 (Add)                     (None, 1024, 32)     0           add_2[0][0]                      \n",
            "                                                                 conv1d_4[0][0]                   \n",
            "__________________________________________________________________________________________________\n",
            "separable_conv1d_4 (SeparableCo (None, 1024, 32)     8224        add_3[0][0]                      \n",
            "__________________________________________________________________________________________________\n",
            "activation_4 (Activation)       (None, 1024, 32)     0           separable_conv1d_4[0][0]         \n",
            "__________________________________________________________________________________________________\n",
            "lambda_4 (Lambda)               (None, 1024, 32)     0           activation_4[0][0]               \n",
            "__________________________________________________________________________________________________\n",
            "spatial_dropout1d_4 (SpatialDro (None, 1024, 32)     0           lambda_4[0][0]                   \n",
            "__________________________________________________________________________________________________\n",
            "conv1d_5 (Conv1D)               (None, 1024, 32)     1056        spatial_dropout1d_4[0][0]        \n",
            "__________________________________________________________________________________________________\n",
            "add_4 (Add)                     (None, 1024, 32)     0           add_3[0][0]                      \n",
            "                                                                 conv1d_5[0][0]                   \n",
            "__________________________________________________________________________________________________\n",
            "separable_conv1d_5 (SeparableCo (None, 1024, 32)     8224        add_4[0][0]                      \n",
            "__________________________________________________________________________________________________\n",
            "activation_5 (Activation)       (None, 1024, 32)     0           separable_conv1d_5[0][0]         \n",
            "__________________________________________________________________________________________________\n",
            "lambda_5 (Lambda)               (None, 1024, 32)     0           activation_5[0][0]               \n",
            "__________________________________________________________________________________________________\n",
            "spatial_dropout1d_5 (SpatialDro (None, 1024, 32)     0           lambda_5[0][0]                   \n",
            "__________________________________________________________________________________________________\n",
            "conv1d_6 (Conv1D)               (None, 1024, 32)     1056        spatial_dropout1d_5[0][0]        \n",
            "__________________________________________________________________________________________________\n",
            "add_5 (Add)                     (None, 1024, 32)     0           add_4[0][0]                      \n",
            "                                                                 conv1d_6[0][0]                   \n",
            "__________________________________________________________________________________________________\n",
            "separable_conv1d_6 (SeparableCo (None, 1024, 32)     8224        add_5[0][0]                      \n",
            "__________________________________________________________________________________________________\n",
            "activation_6 (Activation)       (None, 1024, 32)     0           separable_conv1d_6[0][0]         \n",
            "__________________________________________________________________________________________________\n",
            "lambda_6 (Lambda)               (None, 1024, 32)     0           activation_6[0][0]               \n",
            "__________________________________________________________________________________________________\n",
            "spatial_dropout1d_6 (SpatialDro (None, 1024, 32)     0           lambda_6[0][0]                   \n",
            "__________________________________________________________________________________________________\n",
            "conv1d_7 (Conv1D)               (None, 1024, 32)     1056        spatial_dropout1d_6[0][0]        \n",
            "__________________________________________________________________________________________________\n",
            "add_6 (Add)                     (None, 1024, 32)     0           add_5[0][0]                      \n",
            "                                                                 conv1d_7[0][0]                   \n",
            "__________________________________________________________________________________________________\n",
            "separable_conv1d_7 (SeparableCo (None, 1024, 32)     8224        add_6[0][0]                      \n",
            "__________________________________________________________________________________________________\n",
            "activation_7 (Activation)       (None, 1024, 32)     0           separable_conv1d_7[0][0]         \n",
            "__________________________________________________________________________________________________\n",
            "lambda_7 (Lambda)               (None, 1024, 32)     0           activation_7[0][0]               \n",
            "__________________________________________________________________________________________________\n",
            "spatial_dropout1d_7 (SpatialDro (None, 1024, 32)     0           lambda_7[0][0]                   \n",
            "__________________________________________________________________________________________________\n",
            "conv1d_8 (Conv1D)               (None, 1024, 32)     1056        spatial_dropout1d_7[0][0]        \n",
            "__________________________________________________________________________________________________\n",
            "add_7 (Add)                     (None, 1024, 32)     0           add_6[0][0]                      \n",
            "                                                                 conv1d_8[0][0]                   \n",
            "__________________________________________________________________________________________________\n",
            "separable_conv1d_8 (SeparableCo (None, 1024, 32)     8224        add_7[0][0]                      \n",
            "__________________________________________________________________________________________________\n",
            "activation_8 (Activation)       (None, 1024, 32)     0           separable_conv1d_8[0][0]         \n",
            "__________________________________________________________________________________________________\n",
            "lambda_8 (Lambda)               (None, 1024, 32)     0           activation_8[0][0]               \n",
            "__________________________________________________________________________________________________\n",
            "spatial_dropout1d_8 (SpatialDro (None, 1024, 32)     0           lambda_8[0][0]                   \n",
            "__________________________________________________________________________________________________\n",
            "conv1d_9 (Conv1D)               (None, 1024, 32)     1056        spatial_dropout1d_8[0][0]        \n",
            "__________________________________________________________________________________________________\n",
            "add_8 (Add)                     (None, 1024, 32)     0           add_7[0][0]                      \n",
            "                                                                 conv1d_9[0][0]                   \n",
            "__________________________________________________________________________________________________\n",
            "separable_conv1d_9 (SeparableCo (None, 1024, 32)     8224        add_8[0][0]                      \n",
            "__________________________________________________________________________________________________\n",
            "activation_9 (Activation)       (None, 1024, 32)     0           separable_conv1d_9[0][0]         \n",
            "__________________________________________________________________________________________________\n",
            "lambda_9 (Lambda)               (None, 1024, 32)     0           activation_9[0][0]               \n",
            "__________________________________________________________________________________________________\n",
            "spatial_dropout1d_9 (SpatialDro (None, 1024, 32)     0           lambda_9[0][0]                   \n",
            "__________________________________________________________________________________________________\n",
            "conv1d_10 (Conv1D)              (None, 1024, 32)     1056        spatial_dropout1d_9[0][0]        \n",
            "__________________________________________________________________________________________________\n",
            "add_9 (Add)                     (None, 1024, 32)     0           add_8[0][0]                      \n",
            "                                                                 conv1d_10[0][0]                  \n",
            "__________________________________________________________________________________________________\n",
            "conv1d_11 (Conv1D)              (None, 1024, 32)     32800       add_9[0][0]                      \n",
            "__________________________________________________________________________________________________\n",
            "activation_10 (Activation)      (None, 1024, 32)     0           conv1d_11[0][0]                  \n",
            "__________________________________________________________________________________________________\n",
            "lambda_10 (Lambda)              (None, 1024, 32)     0           activation_10[0][0]              \n",
            "__________________________________________________________________________________________________\n",
            "spatial_dropout1d_10 (SpatialDr (None, 1024, 32)     0           lambda_10[0][0]                  \n",
            "__________________________________________________________________________________________________\n",
            "conv1d_12 (Conv1D)              (None, 1024, 32)     1056        spatial_dropout1d_10[0][0]       \n",
            "__________________________________________________________________________________________________\n",
            "add_10 (Add)                    (None, 1024, 32)     0           add_9[0][0]                      \n",
            "                                                                 conv1d_12[0][0]                  \n",
            "__________________________________________________________________________________________________\n",
            "conv1d_13 (Conv1D)              (None, 1024, 32)     32800       add_10[0][0]                     \n",
            "__________________________________________________________________________________________________\n",
            "activation_11 (Activation)      (None, 1024, 32)     0           conv1d_13[0][0]                  \n",
            "__________________________________________________________________________________________________\n",
            "lambda_11 (Lambda)              (None, 1024, 32)     0           activation_11[0][0]              \n",
            "__________________________________________________________________________________________________\n",
            "spatial_dropout1d_11 (SpatialDr (None, 1024, 32)     0           lambda_11[0][0]                  \n",
            "__________________________________________________________________________________________________\n",
            "conv1d_14 (Conv1D)              (None, 1024, 32)     1056        spatial_dropout1d_11[0][0]       \n",
            "__________________________________________________________________________________________________\n",
            "add_11 (Add)                    (None, 1024, 32)     0           add_10[0][0]                     \n",
            "                                                                 conv1d_14[0][0]                  \n",
            "__________________________________________________________________________________________________\n",
            "conv1d_15 (Conv1D)              (None, 1024, 32)     32800       add_11[0][0]                     \n",
            "__________________________________________________________________________________________________\n",
            "activation_12 (Activation)      (None, 1024, 32)     0           conv1d_15[0][0]                  \n",
            "__________________________________________________________________________________________________\n",
            "lambda_12 (Lambda)              (None, 1024, 32)     0           activation_12[0][0]              \n",
            "__________________________________________________________________________________________________\n",
            "spatial_dropout1d_12 (SpatialDr (None, 1024, 32)     0           lambda_12[0][0]                  \n",
            "__________________________________________________________________________________________________\n",
            "conv1d_16 (Conv1D)              (None, 1024, 32)     1056        spatial_dropout1d_12[0][0]       \n",
            "__________________________________________________________________________________________________\n",
            "add_12 (Add)                    (None, 1024, 32)     0           add_11[0][0]                     \n",
            "                                                                 conv1d_16[0][0]                  \n",
            "__________________________________________________________________________________________________\n",
            "conv1d_17 (Conv1D)              (None, 1024, 32)     32800       add_12[0][0]                     \n",
            "__________________________________________________________________________________________________\n",
            "activation_13 (Activation)      (None, 1024, 32)     0           conv1d_17[0][0]                  \n",
            "__________________________________________________________________________________________________\n",
            "lambda_13 (Lambda)              (None, 1024, 32)     0           activation_13[0][0]              \n",
            "__________________________________________________________________________________________________\n",
            "spatial_dropout1d_13 (SpatialDr (None, 1024, 32)     0           lambda_13[0][0]                  \n",
            "__________________________________________________________________________________________________\n",
            "conv1d_18 (Conv1D)              (None, 1024, 32)     1056        spatial_dropout1d_13[0][0]       \n",
            "__________________________________________________________________________________________________\n",
            "add_13 (Add)                    (None, 1024, 32)     0           add_12[0][0]                     \n",
            "                                                                 conv1d_18[0][0]                  \n",
            "__________________________________________________________________________________________________\n",
            "conv1d_19 (Conv1D)              (None, 1024, 32)     32800       add_13[0][0]                     \n",
            "__________________________________________________________________________________________________\n",
            "activation_14 (Activation)      (None, 1024, 32)     0           conv1d_19[0][0]                  \n",
            "__________________________________________________________________________________________________\n",
            "lambda_14 (Lambda)              (None, 1024, 32)     0           activation_14[0][0]              \n",
            "__________________________________________________________________________________________________\n",
            "spatial_dropout1d_14 (SpatialDr (None, 1024, 32)     0           lambda_14[0][0]                  \n",
            "__________________________________________________________________________________________________\n",
            "conv1d_20 (Conv1D)              (None, 1024, 32)     1056        spatial_dropout1d_14[0][0]       \n",
            "__________________________________________________________________________________________________\n",
            "add_14 (Add)                    (None, 1024, 32)     0           add_13[0][0]                     \n",
            "                                                                 conv1d_20[0][0]                  \n",
            "__________________________________________________________________________________________________\n",
            "conv1d_21 (Conv1D)              (None, 1024, 32)     32800       add_14[0][0]                     \n",
            "__________________________________________________________________________________________________\n",
            "activation_15 (Activation)      (None, 1024, 32)     0           conv1d_21[0][0]                  \n",
            "__________________________________________________________________________________________________\n",
            "lambda_15 (Lambda)              (None, 1024, 32)     0           activation_15[0][0]              \n",
            "__________________________________________________________________________________________________\n",
            "spatial_dropout1d_15 (SpatialDr (None, 1024, 32)     0           lambda_15[0][0]                  \n",
            "__________________________________________________________________________________________________\n",
            "conv1d_22 (Conv1D)              (None, 1024, 32)     1056        spatial_dropout1d_15[0][0]       \n",
            "__________________________________________________________________________________________________\n",
            "add_15 (Add)                    (None, 1024, 32)     0           add_14[0][0]                     \n",
            "                                                                 conv1d_22[0][0]                  \n",
            "__________________________________________________________________________________________________\n",
            "conv1d_23 (Conv1D)              (None, 1024, 32)     32800       add_15[0][0]                     \n",
            "__________________________________________________________________________________________________\n",
            "activation_16 (Activation)      (None, 1024, 32)     0           conv1d_23[0][0]                  \n",
            "__________________________________________________________________________________________________\n",
            "lambda_16 (Lambda)              (None, 1024, 32)     0           activation_16[0][0]              \n",
            "__________________________________________________________________________________________________\n",
            "spatial_dropout1d_16 (SpatialDr (None, 1024, 32)     0           lambda_16[0][0]                  \n",
            "__________________________________________________________________________________________________\n",
            "conv1d_24 (Conv1D)              (None, 1024, 32)     1056        spatial_dropout1d_16[0][0]       \n",
            "__________________________________________________________________________________________________\n",
            "add_16 (Add)                    (None, 1024, 32)     0           add_15[0][0]                     \n",
            "                                                                 conv1d_24[0][0]                  \n",
            "__________________________________________________________________________________________________\n",
            "conv1d_25 (Conv1D)              (None, 1024, 32)     32800       add_16[0][0]                     \n",
            "__________________________________________________________________________________________________\n",
            "activation_17 (Activation)      (None, 1024, 32)     0           conv1d_25[0][0]                  \n",
            "__________________________________________________________________________________________________\n",
            "lambda_17 (Lambda)              (None, 1024, 32)     0           activation_17[0][0]              \n",
            "__________________________________________________________________________________________________\n",
            "spatial_dropout1d_17 (SpatialDr (None, 1024, 32)     0           lambda_17[0][0]                  \n",
            "__________________________________________________________________________________________________\n",
            "conv1d_26 (Conv1D)              (None, 1024, 32)     1056        spatial_dropout1d_17[0][0]       \n",
            "__________________________________________________________________________________________________\n",
            "add_17 (Add)                    (None, 1024, 32)     0           add_16[0][0]                     \n",
            "                                                                 conv1d_26[0][0]                  \n",
            "__________________________________________________________________________________________________\n",
            "conv1d_27 (Conv1D)              (None, 1024, 32)     32800       add_17[0][0]                     \n",
            "__________________________________________________________________________________________________\n",
            "activation_18 (Activation)      (None, 1024, 32)     0           conv1d_27[0][0]                  \n",
            "__________________________________________________________________________________________________\n",
            "lambda_18 (Lambda)              (None, 1024, 32)     0           activation_18[0][0]              \n",
            "__________________________________________________________________________________________________\n",
            "spatial_dropout1d_18 (SpatialDr (None, 1024, 32)     0           lambda_18[0][0]                  \n",
            "__________________________________________________________________________________________________\n",
            "conv1d_28 (Conv1D)              (None, 1024, 32)     1056        spatial_dropout1d_18[0][0]       \n",
            "__________________________________________________________________________________________________\n",
            "add_18 (Add)                    (None, 1024, 32)     0           add_17[0][0]                     \n",
            "                                                                 conv1d_28[0][0]                  \n",
            "__________________________________________________________________________________________________\n",
            "conv1d_29 (Conv1D)              (None, 1024, 32)     32800       add_18[0][0]                     \n",
            "__________________________________________________________________________________________________\n",
            "activation_19 (Activation)      (None, 1024, 32)     0           conv1d_29[0][0]                  \n",
            "__________________________________________________________________________________________________\n",
            "lambda_19 (Lambda)              (None, 1024, 32)     0           activation_19[0][0]              \n",
            "__________________________________________________________________________________________________\n",
            "spatial_dropout1d_19 (SpatialDr (None, 1024, 32)     0           lambda_19[0][0]                  \n",
            "__________________________________________________________________________________________________\n",
            "conv1d_30 (Conv1D)              (None, 1024, 32)     1056        spatial_dropout1d_19[0][0]       \n",
            "__________________________________________________________________________________________________\n",
            "add_20 (Add)                    (None, 1024, 32)     0           conv1d_1[0][0]                   \n",
            "                                                                 conv1d_2[0][0]                   \n",
            "                                                                 conv1d_3[0][0]                   \n",
            "                                                                 conv1d_4[0][0]                   \n",
            "                                                                 conv1d_5[0][0]                   \n",
…
